…
=0.1, box=7.5, cls=0.5, dfl=1.5, pose=12.0, kobj=1.0, nbs=64, hsv_h=0.015, hsv_s=0.7, hsv_v=0.4, degrees=0.0, translate=0.1, scale=0.5, shear=0.0, perspective=0.0, flipud=0.0, fliplr=0.5, bgr=0.0, mosaic=1.0, mixup=0.0, copy_paste=0.0, copy_paste_mode=flip, auto_augment=randaugment, erasing=0.4, crop_fraction=1.0, cfg=None, tracker=botsort.yaml, save_dir=runs/train/yolov8-imp24
WARNING ⚠️ no model scale passed. Assuming scale='n'.

                   from  n    params  module                                       arguments                     
  0                  -1  1       464  ultralytics.nn.modules.conv.Conv             [3, 16, 3, 2]                 
  1                  -1  1      4672  ultralytics.nn.modules.conv.Conv             [16, 32, 3, 2]                
  2                  -1  1      7360  ultralytics.nn.modules.block.C2f             [32, 32, 1, True]             
  3                  -1  1     18560  ultralytics.nn.modules.conv.Conv             [32, 64, 3, 2]                
  4                  -1  2     49664  ultralytics.nn.modules.block.C2f             [64, 64, 2, True]             
  5                  -1  1     73984  ultralytics.nn.modules.conv.Conv             [64, 128, 3, 2]               
  6                  -1  2    197632  ultralytics.nn.modules.block.C2f             [128, 128, 2, True]           
  7                  -1  1    295424  ultralytics.nn.modules.conv.Conv             [128, 256, 3, 2]              
  8                  -1  1    460288  ultralytics.nn.modules.block.C2f             [256, 256, 1, True]           
  9                  -1  1    164608  ultralytics.nn.modules.block.SPPF            [256, 256, 5]                 
 10                   4  1      4224  ultralytics.nn.modules.conv.Conv             [64, 64]                      
 11                   6  1      8320  ultralytics.nn.modules.conv.Conv             [128, 64]                     
 12                   9  1     16512  ultralytics.nn.modules.conv.Conv             [256, 64]                     
 13                  11  1     36992  ultralytics.nn.modules.conv.Conv             [64, 64, 3, 2]                
 14            [-1, 12]  1         2  ultralytics.nn.modules.block.Fusion          [[64, 64], 'bifpn']           
 15                  -1  1     25088  ultralytics.nn.modules.block.CSP_MSCB        [64, 64, 1, [5, 7, 9]]        
 16                  -1  1      4864  ultralytics.nn.modules.block.EUCB            [64]                          
 17                  10  1     36992  ultralytics.nn.modules.conv.Conv             [64, 64, 3, 2]                
 18        [-1, -2, 11]  1         3  ultralytics.nn.modules.block.Fusion          [[64, 64, 64], 'bifpn']       
 19                  -1  1     20480  ultralytics.nn.modules.block.CSP_MSCB        [64, 64, 1, [3, 5, 7]]        
 20                  -1  1      4864  ultralytics.nn.modules.block.EUCB            [64]                          
 21                   2  1     18560  ultralytics.nn.modules.conv.Conv             [32, 64, 3, 2]                
 22        [-1, -2, 10]  1         3  ultralytics.nn.modules.block.Fusion          [[64, 64, 64], 'bifpn']       
 23                  -1  1     17408  ultralytics.nn.modules.block.CSP_MSCB        [64, 64, 1, [1, 3, 5]]        
 24            [20, -1]  1         2  ultralytics.nn.modules.block.Fusion          [[64, 64], 'bifpn']           
 25                  -1  1     17408  ultralytics.nn.modules.block.CSP_MSCB        [64, 64, 1, [1, 3, 5]]        
 26                  23  1     36992  ultralytics.nn.modules.conv.Conv             [64, 64, 3, 2]                
 27                  25  1     36992  ultralytics.nn.modules.conv.Conv             [64, 64, 3, 2]                
 28    [-1, -2, 19, 16]  1         4  ultralytics.nn.modules.block.Fusion          [[64, 64, 64, 64], 'bifpn']   
 29                  -1  1     20480  ultralytics.nn.modules.block.CSP_MSCB        [64, 64, 1, [3, 5, 7]]        
 30                  19  1     36992  ultralytics.nn.modules.conv.Conv             [64, 64, 3, 2]                
 31                  29  1     36992  ultralytics.nn.modules.conv.Conv             [64, 64, 3, 2]                
 32        [-1, -2, 15]  1         3  ultralytics.nn.modules.block.Fusion          [[64, 64, 64], 'bifpn']       
 33                  -1  1     25088  ultralytics.nn.modules.block.CSP_MSCB        [64, 64, 1, [5, 7, 9]]        
[DEBUG] Detect_SEAM 参数: nc=7, ch=[64, 64, 64]
 34        [25, 29, 33]  1    173029  ultralytics.nn.modules.head.Detect_SEAM      [7, [64, 64, 64]]             
YOLOv8-new-EMBSFPN summary: 271 layers, 1,850,950 parameters, 1,850,934 gradients, 5.7 GFLOPs

[34m[1mTensorBoard: [0mStart with 'tensorboard --logdir runs/train/yolov8-imp24', view at http://localhost:6006/
Freezing layer 'model.34.dfl.conv.weight'
[34m[1mAMP: [0mrunning Automatic Mixed Precision (AMP) checks...
[34m[1mAMP: [0mchecks passed ✅
[34m[1mtrain
…
