…
=0.1, box=7.5, cls=0.5, dfl=1.5, pose=12.0, kobj=1.0, nbs=64, hsv_h=0.015, hsv_s=0.7, hsv_v=0.4, degrees=0.0, translate=0.1, scale=0.5, shear=0.0, perspective=0.0, flipud=0.0, fliplr=0.5, bgr=0.0, mosaic=1.0, mixup=0.0, copy_paste=0.0, copy_paste_mode=flip, auto_augment=randaugment, erasing=0.4, crop_fraction=1.0, cfg=None, tracker=botsort.yaml, save_dir=runs/train/yolov11_imp2
WARNING ⚠️ no model scale passed. Assuming scale='n'.

                   from  n    params  module                                       arguments                     
  0                  -1  1       464  ultralytics.nn.modules.conv.Conv             [3, 16, 3, 2]                 
  1                  -1  1      4672  ultralytics.nn.modules.conv.Conv             [16, 32, 3, 2]                
  2                  -1  1      6640  ultralytics.nn.modules.block.C3k2            [32, 64, 1, False, 0.25]      
  3                  -1  1     36992  ultralytics.nn.modules.conv.Conv             [64, 64, 3, 2]                
  4                  -1  1     26080  ultralytics.nn.modules.block.C3k2            [64, 128, 1, False, 0.25]     
  5                  -1  1    147712  ultralytics.nn.modules.conv.Conv             [128, 128, 3, 2]              
  6                  -1  1     87040  ultralytics.nn.modules.block.C3k2            [128, 128, 1, True]           
  7                  -1  1    295424  ultralytics.nn.modules.conv.Conv             [128, 256, 3, 2]              
  8                  -1  1    346112  ultralytics.nn.modules.block.C3k2            [256, 256, 1, True]           
  9                  -1  1    164608  ultralytics.nn.modules.block.SPPF            [256, 256, 5]                 
 10                  -1  1    249728  ultralytics.nn.modules.block.C2PSA           [256, 256, 1]                 
 11                   4  1      8320  ultralytics.nn.modules.conv.Conv             [128, 64]                     
 12                   6  1      8320  ultralytics.nn.modules.conv.Conv             [128, 64]                     
 13                  10  1     16512  ultralytics.nn.modules.conv.Conv             [256, 64]                     
 14                  12  1     36992  ultralytics.nn.modules.conv.Conv             [64, 64, 3, 2]                
 15            [-1, 13]  1         2  ultralytics.nn.modules.block.Fusion          [[64, 64], 'bifpn']           
 16                  -1  2     41728  ultralytics.nn.modules.block.CSP_MSCB        [64, 64, 2, [5, 7, 9]]        
 17                  -1  1      4864  ultralytics.nn.modules.block.EUCB            [64]                          
 18                  11  1     36992  ultralytics.nn.modules.conv.Conv             [64, 64, 3, 2]                
 19        [-1, -2, 12]  1         3  ultralytics.nn.modules.block.Fusion          [[64, 64, 64], 'bifpn']       
 20                  -1  2     32512  ultralytics.nn.modules.block.CSP_MSCB        [64, 64, 2, [3, 5, 7]]        
 21                  -1  1      4864  ultralytics.nn.modules.block.EUCB            [64]                          
 22                   2  1     36992  ultralytics.nn.modules.conv.Conv             [64, 64, 3, 2]                
 23        [-1, -2, 11]  1         3  ultralytics.nn.modules.block.Fusion          [[64, 64, 64], 'bifpn']       
 24                  -1  2     26368  ultralytics.nn.modules.block.CSP_MSCB        [64, 64, 2, [1, 3, 5]]        
 25            [21, -1]  1         2  ultralytics.nn.modules.block.Fusion          [[64, 64], 'bifpn']           
 26                  -1  2     26368  ultralytics.nn.modules.block.CSP_MSCB        [64, 64, 2, [1, 3, 5]]        
 27                  24  1     36992  ultralytics.nn.modules.conv.Conv             [64, 64, 3, 2]                
 28                  26  1     36992  ultralytics.nn.modules.conv.Conv             [64, 64, 3, 2]                
 29    [-1, -2, 20, 17]  1         4  ultralytics.nn.modules.block.Fusion          [[64, 64, 64, 64], 'bifpn']   
 30                  -1  2     32512  ultralytics.nn.modules.block.CSP_MSCB        [64, 64, 2, [3, 5, 7]]        
 31                  20  1     36992  ultralytics.nn.modules.conv.Conv             [64, 64, 3, 2]                
 32                  30  1     36992  ultralytics.nn.modules.conv.Conv             [64, 64, 3, 2]                
 33        [-1, -2, 16]  1         3  ultralytics.nn.modules.block.Fusion          [[64, 64, 64], 'bifpn']       
 34                  -1  2     41728  ultralytics.nn.modules.block.CSP_MSCB        [64, 64, 2, [5, 7, 9]]        
 35        [26, 30, 34]  1    265381  ultralytics.nn.modules.head.Detect           [7, [64, 64, 64]]             
YOLO11-EMBSFPN summary: 319 layers, 2,133,910 parameters, 2,133,894 gradients, 6.8 GFLOPs

[34m[1mTensorBoard: [0mStart with 'tensorboard --logdir runs/train/yolov11_imp2', view at http://localhost:6006/
Freezing layer 'model.35.dfl.conv.weight'
[34m[1mAMP: [0mrunning Automatic Mixed Precision (AMP) checks...
[34m[1mAMP: [0mchecks passed ✅
[34m[1mtrain: [
…
